FashionNetwork/best_weights_w1.npy (npy, 942128 bytes, 1 tensors)

array f8 [785, 150]
3.219970739979031e-05 4.135595589619898e-06 0.00016786178327605214 -8.301328776102545e-06 6.937318160814484e-05 0.00011334169580450073 -3.721679496090435e-05 -4.0170766823077357e-05
-7.165118658659907e-05 4.5411656821186615e-05 8.398733084394832e-06 1.7775718394234727e-05 -6.686039192436307e-05 -2.296366734695596e-05 -1.3446955827170444e-06 -6.183889008372108e-05
-2.2496440869004907e-05 -1.450456492154982e-05 -7.248740624713992e-05 -8.267653447015465e-06 -3.543278034834863e-05 2.0780484459000342e-05 3.2325531147381407e-07 2.3497079060346435e-06
2.2743286272445877e-06 -1.921132696276557e-05 -4.654680241452204e-05 1.9126514735586582e-05 -3.7956914674315243e-06 -5.735499023042329e-06 7.714769382711865e-06 -1.4889283407698067e-05
6.995598771702e-05 -3.956180497765457e-05 -6.473948938088054e-05 5.417969424522611e-05 -4.224266329215942e-05 2.0349389340763684e-05 -2.459366536759126e-06 4.850380235323876e-05
2.594923853773566e-06 -3.867347485987194e-05 -9.365839285751545e-06 -2.3593855540277514e-05 -7.027089926256296e-07 -3.457710442863311e-05 -3.210915427356009e-05 -1.295328275945847e-05
-4.112000916696583e-07 1.942119623204457e-05 2.83427371450837e-05 -1.5564666122106498e-05 -1.514567324119703e-05 5.412967812476551e-05 7.431964747142351e-05 -5.814741374258483e-05
2.325916628074543e-05 -1.7702948122672093e-05 4.611815379490653e-05 -2.302029728205006e-05 4.426247568736702e-05 -6.5556840805287e-05 6.575821626679423e-05 2.547623603506663e-06
2.4609571222306487e-06 -9.93571502326613e-07 6.451871803200194e-06 0.00011474068832158151 1.6213180781529108e-06 -3.244281159355531e-05 6.32871571615918e-08 -7.528888740841207e-05
-4.119689501939929e-06 -0.0001076616536342519 1.3588599875376047e-05 9.378933263057555e-06 9.393822159402971e-06 -5.09274337810291e-06 -4.5006413200509076e-05 0.00010579225171826679
-0.00015338544661917437 9.118826890631582e-06 9.230104582217454e-05 1.1065299314157732e-05 5.236245667339352e-05 4.5720668837677824e-05 7.917612537138573e-05 4.356108909553574e-05
6.853930338319204e-05 3.6265361038094196e-05 -2.888147430072144e-05 -3.094094727092111e-06 -1.2913086475720422e-05 -3.1266265508891086e-05 2.9990638308865556e-06 -6.943174153642288e-05
-4.041889024634694e-05 2.8674983041034754e-05 1.2970088044448043e-06 -6.379128237746228e-06 1.3840870654660512e-05 2.294116491314566e-06 -5.709819953808503e-05 -5.3789690995550915e-05
-2.939600868528128e-06 -2.1664745735666186e-05 0.00012833879321410714 -4.0875122990872184e-05 7.546733142682182e-05 2.642097929183868e-06 -7.433746816422053e-05 8.510673439256917e-06
-2.050256491976761e-06 -8.630670777599115e-06 9.70920868305962e-06 2.7035731036579614e-06 1.1292479308692641e-05 1.860545131720034e-05 4.96973132424753e-07 -9.306993550193663e-06
-4.979590279523327e-06 -2.8664147734015134e-06 0.0001962541312815391 3.352144442397011e-05 1.4111816302596025e-05 4.453726142540482e-05 -1.4021877716269897e-05 2.073821770861607e-05
0.0001261635689999297 6.450859687972066e-05 -8.508755189651437e-06 9.051105062099139e-06 -2.688443611956562e-05 3.5904932852630354e-05 2.216408509494242e-05 3.361054555716538e-06
-2.255994455923386e-05 9.676438664614858e-05 1.1515983719003876e-05 -4.4376851575777684e-05 4.970897864484155e-06 -3.880750577365759e-07 -2.3073989185724733e-05 2.2043290724004e-06
-1.3048555370062871e-05 -9.774612353566444e-05 -1.0744889590892789e-05 0.00018594974995558592 5.2676750112128365e-05 9.340592059018889e-06 -8.930344462463904e-05 -8.960123515993442e-05
0.00013362621799893205 1.2611907797206465e-06 5.5850018261631704e-05 0.00017959438908435893 -9.35441042517829e-05 3.0980214150176147e-05 -0.00010933775055244321 9.514356332685221e-05
-4.0195331407527916e-05 -7.502316572691355e-05 -7.137758583835334e-05 -8.185283646729072e-07 0.00013112604976787102 1.2851816057172816e-05 -0.00016307766495319336 2.7252497801694173e-05
-5.478484639405794e-05 -8.365834972475296e-06 3.389561974550575e-05 -3.842159128918861e-05 2.7554528065948134e-05 1.918086215142462e-06 -2.4439006072873403e-05 5.264645724150425e-05
-2.392090316080337e-05 2.4795260136344776e-05 -1.6594654314814594e-05 -4.437752747461067e-05 -4.670490263011632e-05 0.00011679907079166798 9.869464047017111e-05 -5.923392499274022e-05
-3.397852130136896e-05 0.00010818218350103011 -6.11958875662042e-05 -3.242087419508591e-05 -0.00013194028418825698 3.641528444220099e-05 -5.249077057294577e-05 -5.909066913434652e-05
5.9572901553293735e-05 -7.342208946234024e-05 -9.935232793128057e-06 1.544492305323809e-05 -3.1622920080724794e-05 4.5694080512142865e-05 -6.26440744609657e-05 0.00013876883181186014
-2.7545477823928983e-06 -8.84576235204757e-05 -1.9285280933621668e-05 0.00011531030337820893 -5.856711826368862e-05 -8.363064268482986e-05 1.714932353163717e-05 5.8886901187015745e-06
0.0001811651044035485 3.567985396592223e-05 7.597096548130231e-05 -0.00014955755414162078 9.050488197453171e-05 1.2696859453412034e-05 1.6244981444852186e-05 1.0615927985566367e-05
-4.475189681622273e-06 7.273667308404252e-05 -5.7419272888581375e-05 3.003039750295088e-05 -7.828172754098479e-05 -6.909578750068474e-05 -2.540539200642483e-05 -0.0002398191976757449
8.892389834186722e-06 2.4979101793168962e-05 -0.00011524768493659112 -2.1698188016704698e-05 -4.561340304812291e-05 6.90238556916661e-05 -0.00022427594160558437 -3.347763937773452e-05
8.384194910573042e-05 8.087183039618473e-06 5.026328952337604e-05 2.682768137743351e-05 7.011027500158699e-05 5.3185568474071744e-05 7.082275936296385e-05 5.00487214345391e-05
-0.00010930010601034727 -1.2485367914716748e-05 -8.698123584160375e-06 2.9776578564084615e-05 -1.737835704451864e-06 3.209136921018581e-05 0.00015804569633394357 -0.000101909257722047
6.748907619807152e-05 3.92636435033286e-05 5.051940496589139e-06 -0.0001838744316382641 -4.8486017632356265e-05 -9.496205785890356e-05 7.624127453725868e-05 4.166615751285822e-05
00000000: 3c91 9385 c5e1 003f 0e78 11dc 8f58 d13e
00000010: d078 24bd 8100 263f 8678 7df0 bd68 e1be
00000020: 99fc 552f 8e2f 123f 22ac cb81 3bb6 1d3f
00000030: 2fed 7656 2783 03bf 94cc bf09 a10f 05bf
00000040: ef03 2f03 6ec8 12bf 2116 b1a5 0ccf 073f
00000050: 9787 ea15 099d e13e b584 1011 a2a3 f23e
00000060: 0a1a 6fc9 ec86 11bf 96cf 3a34 4314 f8be
00000070: 0d05 d46d 6c8f b6be 4983 c80a f035 10bf
00000080: 1ad0 1aa5 d796 f7be d3b9 2f39 146b eebe
00000090: 14eb 2428 8c00 13bf 1c6a 2ea3 a956 e1be
000000a0: 03c3 fa0f b593 02bf e021 b204 38ca f53e
000000b0: dc22 13e5 7bb1 953e 8560 1095 f5b5 c33e
000000c0: 0a6a b162 1514 c33e c5cd 1656 0025 f4be
000000d0: 2faa ecf3 6767 08bf 8315 9c15 3c0e f43e
000000e0: 31b4 b273 2fd7 cfbe 40d4 7bf7 710e d8be
000000f0: 0076 8ad4 d52d e03e 0972 8d87 9f39 efbe
00000100: 33ad b5b7 aa56 123f 14bc b544 e5bd 04bf
00000110: f2f8 66f5 97f8 10bf 82ec 7e1e e067 0c3f
00000120: 6eda d2db b625 06bf cd47 2c63 7f56 f53e
00000130: 7f20 540d 73a1 c4be 940c 6ef5 116e 093f
00000140: 8a46 a779 8ec4 c53e 5005 5c7a aa46 04bf
00000150: 2da5 5a26 3fa4 e3be 586d 2b68 6dbd f8be
00000160: 7cd6 aa6a 3994 a7be e12b fe42 dc20 02bf
00000170: 23cb da23 9ed5 00bf 9471 61a0 3d2a ebbe
00000180: 6090 e720 5d98 9bbe a7b9 5171 565d f43e
00000190: 4542 dd10 32b8 fd3e 3eaa 23b6 1b52 f0be
000001a0: 15a9 da7a 45c3 efbe 7e30 0c94 2961 0c3f
000001b0: 03a7 44d2 817b 133f e0d4 47ec 697c 0ebf
000001c0: dde9 72bc 9563 f83e 11a0 e854 1990 f2be
000001d0: cee0 cab2 df2d 083f 1166 95c8 7623 f8be
000001e0: 960f 8a15 cf34 073f c291 fbf2 712f 11bf
000001f0: b6eb a08d f53c 113f 8e76 3be3 fa5e c53e
00000200: c438 557c dda4 c43e 254e 7a6b 5bab b0be
00000210: 3cf0 6204 a50f db3e c253 f403 1e14 1e3f
00000220: 5ee5 4914 8233 bb3e 20cb ad84 6602 01bf
00000230: 4c08 6971 0ffd 703e 7c6a 973c 8dbc 13bf
00000240: 7646 a7a0 7b47 d1be bb53 2520 0d39 1cbf
00000250: ee75 2ef2 527f ec3e 0b47 b9c5 46ab e33e
00000260: 0758 3116 45b3 e33e dbab efa3 4a5c d5be
00000270: 318c 1b95 a898 07bf 9c44 920b 99bb 1b3f
00000280: 77c5 2df4 c21a 24bf ae68 5506 a21f e33e
00000290: c0a9 8ce4 3732 183f b0f7 5728 a334 e73e
000002a0: d93f c54f f873 0b3f 733f 2238 86f8 073f
000002b0: 99cd f379 6bc1 143f fd40 d59f abd6 063f
000002c0: bb31 1e44 98f7 113f 0bcf 2c51 7403 033f
000002d0: bfa3 22cd cf48 febe 2fd9 9f90 84f4 c9be
000002e0: d583 6017 a914 ebbe f08d dfb3 7c64 00bf
000002f0: 9eed f9c6 7028 c93e 98c7 9f3c 7c33 12bf
00000300: aa16 767e ee30 05bf 9c75 7ad4 6111 fe3e
00000310: 4e4d 0643 9cc2 b53e 9fd9 096b 89c1 dabe
00000320: e89f 25c7 c206 ed3e 296e fbe0 933e c33e
00000330: 7c9f 8932 97ef 0dbf f7f7 a1b5 8733 0cbf
00000340: 59f8 00ab bea8 c8be 0839 96fd 95b7 f6be
00000350: 6d07 ded6 55d2 203f 2435 1f88 2a6e 05bf
00000360: c01e afe1 86c8 133f 66ca 8ab2 dc29 c63e
00000370: 2e03 81fa b37c 13bf 3a6b 030d 22d9 e13e
00000380: 6d3e 2a6d e432 c1be d6e7 035c 8e19 e2be
00000390: ec2d fe7a 975c e43e 859f 3108 e1ad c63e
000003a0: 376f cd89 9aae e73e 0f34 03e1 5c82 f33e
000003b0: 5f0a c079 f7ac a03e ff2e 1974 a784 e3be
000003c0: a846 7d5a cbe2 d4be f00a cb2f 940b c8be
000003d0: b7ae af26 32b9 293f 365b 640f 2c93 013f
000003e0: e2c8 a343 3998 ed3e 1bc7 73a6 b059 073f
000003f0: 380e f432 f067 edbe ffd9 2878 dfbe f53e
00000400: 17fa 3bce 5889 203f 066d 7141 19e9 103f
00000410: 8100 9b68 1ad8 e1be faeb 5168 46fb e23e
00000420: 4224 ea61 bc30 fcbe 33ef 5319 14d3 023f
00000430: 3597 7e54 a03d f73e 4593 6548 cf31 cc3e
00000440: f476 d695 e3a7 f7be 1495 1681 bf5d 193f
00000450: ce6b 23c0 9826 e83e 2b46 7e02 2944 07bf
00000460: 23c0 2800 76d9 d43e b282 5a27 140b 9abe
00000470: e0c7 8a76 e031 f8be e083 28b9 c27d c23e
00000480: 47ad 5ccb 635d ebbe 3f08 979d a19f 19bf
00000490: 205d 6b61 9e88 e6be a333 8430 705f 283f
000004a0: f708 185a 279e 0b3f a6d5 8832 b196 e33e
000004b0: 459b 0f7f 0d69 17bf e18d af7f 097d 17bf
000004c0: 695d ee78 c083 213f f77c 59ed c528 b53e
000004d0: 27dc eb03 1048 0d3f d3c4 290e 308a 273f
000004e0: 53c2 5679 a385 18bf b54b 830d 183e 003f
000004f0: bc60 5940 88a9 1cbf d260 bef8 f9f0 183f
00000500: f87c 1e12 ed12 05bf 80f8 462c b8aa 13bf
00000510: ad0d 5e96 11b6 12bf 3e42 c4e8 1a77 abbe
00000520: c524 d930 dc2f 213f 3d3c 2c26 c4f3 ea3e
00000530: df74 b179 fa5f 25bf 09a0 8063 8993 fc3e
00000540: 23ea 16fd 18b9 0cbf 995d 819a 5f8b e1be
00000550: 05ad 53a0 64c5 013f 547c 0ad3 db24 04bf
00000560: 842c 1ac0 9ce4 fc3e 993d 5e0c 0f17 c03e
00000570: 1319 93b5 4ba0 f9be 8f9b 2f7f 169a 0b3f
00000580: 1a5c c1f2 3715 f9be cb98 564d edff f93e
00000590: 8c8a 0cf6 9766 f1be e923 c33b 4044 07bf
000005a0: ffae 203c a07c 08bf dfa4 cbc1 409e 1e3f
000005b0: 5f3b 2f03 49df 193f 967f 4e2a 3e0e 0fbf
000005c0: 0db9 1f1a 85d0 01bf 6ad7 b5c2 fb5b 1c3f
000005d0: e5f0 cd57 c90a 10bf e001 48c1 74ff 00bf
000005e0: 872c 4669 2e4b 21bf 563e 62a5 9317 033f
000005f0: b95a c424 3185 0bbf 1542 73ee 03fb 0ebf
00000600: 7e65 aa4f bd3b 0f3f f5d6 65e4 453f 13bf
00000610: f9f0 61ff efd5 e4be 3c54 cb07 f731 f03e
00000620: a7f5 a942 5b94 00bf 14c3 bfa6 f4f4 073f
00000630: fcd7 1f01 f96b 10bf 09d1 4c30 4f30 223f
00000640: fede 72a8 581b c7be 3739 8166 4a30 17bf
00000650: d564 1a6a da38 f4be 2885 77ed 573a 1e3f
00000660: 8441 4adc beb4 0ebf e909 4880 5bec 15bf
00000670: bcbc 1a8a 7cfb f13e 9123 81d0 eeb2 d83e
00000680: 758b ad65 e4be 273f d1c7 8072 deb4 023f
00000690: 7924 ae3f 53ea 133f add4 999b 519a 23bf
000006a0: 8ded 6708 aeb9 173f f152 5e13 93a0 ea3e
000006b0: 4bad dd9f ba08 f13e 38fa 4f08 6243 e63e
000006c0: f343 dac5 32c5 d2be aa5d 4987 4611 133f
000006d0: 3073 9831 af1a 0ebf d413 dc33 397d ff3e
000006e0: dcdf b1d6 6585 14bf 1b3d 2697 f01c 12bf
000006f0: 1456 b53e b5a3 fabe d518 d138 ff6e 2fbf
00000700: 5f5a afc0 10a6 e23e f3c3 f7cd 4631 fa3e
00000710: 9fef a526 2436 1ebf 70a5 6a20 90c0 f6be
00000720: 3450 4598 20ea 07bf 642a b5cf 1c18 123f
00000730: 7662 40ab 7365 2dbf 8e67 21ee 4a8d 01bf
00000740: 5aa5 bfb7 89fa 153f cf67 37f9 c5f5 e03e
00000750: 23f2 3f7a 395a 0a3f bb9f ee39 8021 fc3e
00000760: 5fff 5c5a 0561 123f a4a8 bc37 72e2 0b3f
00000770: 3c19 b9bd d590 123f e37a 61f9 6c3d 0a3f
00000780: 5df0 e685 01a7 1cbf 929a 60e6 072f eabe
00000790: f6e4 a800 c53d e2be 6c94 dde5 1639 ff3e
000007a0: 4902 7090 f227 bdbe a266 c80c 3bd3 003f
000007b0: e2a1 ad31 22b7 243f 57a7 5fb7 03b7 1abf
000007c0: b14d 1c80 1db1 113f 3b66 a584 e095 043f
000007d0: 3fbf 67d4 7a30 d53e 8921 4657 cd19 28bf
000007e0: 26e1 5ee1 ae6b 09bf 63ec 40bb cbe4 18bf
000007f0: fe0f 7b1f 77fc 133f 316f 5c45 56d8 053f
