FashionNetwork/best_weights.npy (npy, 62928 bytes, 1 tensors)

array f8 [785, 10]
0	0xbfbf814bc4727d4a	-0.12306664987635432
1	0xbfbc86b8a7607346	-0.11143068395945219
2	0x3fc4e9a6f30f940e	0.16338049762922008
3	0x3fa96352be004b7d	0.04958590096807478
4	0x3fa3b2fa99399f11	0.03847487564490682
5	0xbfa4c03396fae5db	-0.04052888124483519
6	0x3fd0045397dcd629	0.25026407080017293
7	0xbfd2abdfe8e6ef4d	-0.29174039596886275
8	0xbfc7e0efb8e270d0	-0.1865520146137727
9	0xbfa23cbedcaa05d9	-0.0356197018018169
10	0x3fba4e379cc73364	0.10275600030509008
11	0x3fb1fc32cb75c40a	0.07025449244771678
12	0xbfb01c2edcd21e92	-0.06293003932125377
13	0x3fbf1ed9160de663	0.12156445301470735
14	0xbfb4805e1919181b	-0.08008373368019799
15	0xbfd7131c418278af	-0.36054140469958446
16	0x3fba0147a70d23d3	0.10158202961350975
17	0xbf987186cc429fc6	-0.023870569436126997
18	0xbfc8c55fd8eded94	-0.19352338878875897
19	0xbfcacdd7048720e2	-0.20940673562132078
20	0x3fbe6167a33f4423	0.11867377982640952
21	0x3fb0e1d3fabdfc73	0.0659458624995624
22	0x3fbd616a8e145178	0.11476770371183942
23	0x3faac25352b4da2a	0.05226383576011913
24	0xbfbee607059df055	-0.12069744002468615
25	0xbfa984b4e9b00f4f	-0.0498405967009875
26	0x3fbeef0cd1d9320a	0.12083511470081745
27	0x3fb90ae1968cfeb7	0.0978222839885302
28	0x3f9035749ca68191	0.015828916608030822
29	0xbfb8ff59ab063918	-0.09764633584402238
30	0x3f947eda9447b737	0.020015158939649082
31	0xbfb8753a6ac500f3	-0.09553876024893153
32	0x3fa3a27d6ce5d2a3	0.03834907488172703
33	0xbfc94af498b92485	-0.1975999589651886
34	0x3fbd7d9e819680df	0.11519804633872209
35	0xbf9733e75c93de83	-0.022658934617509018
36	0xbfb87202557247c4	-0.09548964105695662
37	0xbfbb774eb2ae17a1	-0.10728923666292058
38	0xbfbec75573110e36	-0.12022909220927933
39	0xbfb6b90af9538a7b	-0.08876103007382057
40	0xbf9be1421b2e2f76	-0.027226479443512606
41	0x3fb0221c909a00d1	0.06302050142585648
42	0xbfa9fff1785086c9	-0.05078081697162202
43	0xbf8a25d51660460e	-0.012767472024310524
44	0xbfca1058063da9ee	-0.20362377457361397
45	0xbfd3ecaeaf1b2b8c	-0.3113209447880585
46	0x3f9e73175dd36b99	0.02973591337363821
47	0x3fbcc762ace78f19	0.11241738053609786
48	0x3fc1166f8267e628	0.13349717967484875
49	0xbfb1344c0f49e63e	-0.06720424054392368
50	0x3fae006ecfe189a4	0.05859705245599692
51	0x3fd572f8a847b9eb	0.33514229234324827
52	0x3fa54014294938a9	0.041504507102773154
53	0x3f75a935c74796e2	0.005288324424758991
54	0xbfacf0db2b1516a5	-0.05652508641155166
55	0x3f7c0d38d179834f	0.006848546930627488
56	0x3fc4a337c778fe40	0.16123101463198175
57	0x3fb46704a0968205	0.07969693108180571
58	0x3fb6d3269eb0908a	0.08915940641651524
59	0xbfa1c538c8edf175	-0.03470780804397836
60	0xbfb8b851e8a31315	-0.09656249932875156
61	0xbf9aab14232ffdf3	-0.026043238303826
62	0xbfbd957164bfdb1f	-0.11556156835272845
63	0x3fd591811f9fe448	0.3370058831056366
64	0x3faf1f23cd06aeba	0.060784453179932155
65	0xbfa8e4bf7da6cb19	-0.04862020882446511
66	0xbfc4ee25d716ee86	-0.16351769449635273
67	0x3fc90c4d23b84a2a	0.19568790668616148
68	0x3f82094a3dd57892	0.008806781780261983
69	0xbfce71f11c8a56d9	-0.2378522290570604
70	0xbfbf065e51429f4e	-0.12119092449085864
71	0x3fcf9ac366209964	0.24691050039946127
72	0xbfd13aed3e6d5f8d	-0.26922160240564424
73	0xbfd03510825d46da	-0.2532387993897892
74	0xbfbcf2ae4287c788	-0.11307801365162906
75	0x3fc0b84c060b2eea	0.1306242970953158
76	0xbfba9026f5912348	-0.10376208777701124
77	0xbfc5dd85b475705b	-0.17082282363378706
78	0x3fbf3310271004a9	0.12187291101146748
79	0xbf84ef24e8b1fd77	-0.010221756316467474
80	0xbfad16aaf5c18bd1	-0.05681356668426186
81	0x3fc1e93c371a02b0	0.13993027391918167
82	0x3fb977de3acad148	0.09948529181821641
83	0xbfbb66deef36362e	-0.10703843441134417
84	0x3f8646d373e9b8b6	0.01087727735031439
85	0xbfc6ab63e706c1c7	-0.1771054151590887
86	0x3f9be13050c7372a	0.02722621434241216
87	0x3fb85abbb1e78d15	0.09513447850581642
88	0xbfd1f6f32c4c23e5	-0.28069762540741144
89	0xbfd410df44c218e7	-0.3135297938791965
90	0x3fbcd65700728c92	0.11264556656765226
91	0x3fcf2d85de45f60e	0.24357674935519963
92	0xbfc0940d7ca24cd0	-0.12951820932048586
93	0xbf99d301c9987542	-0.025218990258612857
94	0xbfd04ca580225235	-0.2546781302747008
95	0x3fb48c464fd89dd4	0.0802654213845167
96	0x3fd322c52ff00ea2	0.2989972084180669
97	0xbfb98f2186dc88ec	-0.09984025518909662
98	0xbfba854096e07a61	-0.10359576877133626
99	0xbfa55aa5364fddb4	-0.04170719421375271
100	0xbfcc38c660c6b445	-0.22048263287925543
101	0x3fc7740cc4e129a0	0.1832290612531553
102	0x3fcb236a354da120	0.21201827624032266
103	0x3fc8a2dc995a2504	0.1924701451101002
104	0xbfd1ebd969c6daaa	-0.2800200970627126
105	0x3f928251ea93b3b1	0.018075256292764134
106	0x3f7af1ae91b150c9	0.00657814208087277
107	0xbf962fb98fac996a	-0.02166643084924528
108	0xbfc53f9b91b28ad6	-0.16600365270740863
109	0xbf9534c531e8ff29	-0.020709115191720393
110	0x3fce434f01a8b453	0.2364290960407823
111	0x3fe11ee033e71dad	0.5350190175749298
112	0x3fd6d9c9e2908677	0.3570427620453311
113	0x3fd065fef25fafb5	0.2562253348285098
114	0xbfbcd28e9e7af2d7	-0.1125878464617459
115	0xbfcd2d0a933c648f	-0.22793705167058362
116	0xbfdb868f75f3a823	-0.43008791464547097
117	0x3fd0d2fac03b187e	0.2628771664861985
118	0xbfd66ede67f64f85	-0.35051689293435856
119	0xbfa040718493ead1	-0.03174166434651727
120	0xbfba2e9a0ad1edb5	-0.10227358593140574
121	0xbfa50a880194f6f2	-0.04109597224531382
122	0xbfc949d69445f75f	-0.19756586303622733
123	0x3fa7835a880f87f8	0.04592402373215515
124	0x3fc970c57ce89591	0.1987540111451094
125	0xbfcfe6451e3f5e0c	-0.2492147824948322
126	0x3fd5ce94306dd5c5	0.34073357324026815
127	0xbfc3fb24041aa653	-0.1561017055549195
128	0xbfc384fd52a215ad	-0.1524960187418122
129	0x3fb3eb0e03c93606	0.07780540077620665
130	0xbfd888a7e79b72e5	-0.38334081285374416
131	0x3fd08f1cbe37a4f8	0.2587348802176872
132	0xbfa02bce859197e8	-0.031584218792701624
133	0xbfce961e69bd8ab0	-0.23895626223664612
134	0x3fe01f36ea33c526	0.503810365129685
135	0xbfd64a83bc24d557	-0.3482980096190053
136	0xbfd527a3a291dab2	-0.3305443847270154
137	0xbfc690290ff19623	-0.17627442625523412
138	0x3fca66d4b0a6f043	0.20626314759818073
139	0xbfc3e79ce41d96b7	-0.15550576342064001
140	0xbfd8609e85fa985d	-0.3808971699130604
141	0x3fdb3682ffdece88	0.425202131150606
142	0xbfb151e6fc07f968	-0.06765597966293557
143	0xbfdc7604d0675ac7	-0.44470329620291377
144	0x3fd47bd801f2a3b2	0.32005882444587563
145	0xbfc4643ef05c7590	-0.15930926071534346
146	0xbfb7dfc471c4b6f0	-0.0932581689600871
147	0xbfb24c04450b77e7	-0.07147242246307393
148	0x3fdeeb2f31f40bb0	0.48310451391460685
149	0xbfa6209b4814befd	-0.043217518376307475
150	0xbfd31b53a3e1b0c7	-0.2985428905874525
151	0x3fc884434551fcf3	0.19153633961466418
152	0xbfcd561f72a3962f	-0.22919076058967522
153	0xbfc0ee97979843b1	-0.13228125478829392
154	0x3fd1960c61dccd59	0.27478322560201246
155	0xbfdaccce8708bdcb	-0.41875041186264345
156	0x3f8d34053fdeb975	0.01425937749067139
157	0xbf9f724673cccfab	-0.0307093628100145
158	0x3fc21f162e46edec	0.14157368907568413
159	0x3f6e5de25eacf0d2	0.003706876877371903
160	0x3fc356c5e275d419	0.15108560140257124
161	0x3fc0703c4234b2e9	0.1284251521368767
162	0xbf6c16f0cc8e47fa	-0.003428907690655511
163	0x3fd61ba4ff1a2e3d	0.3454372874482237
164	0x3fb1e448687630f4	0.06988956976255506
165	0x3fa470a7bb684e6d	0.03992199099243696
166	0xbfcbc1006ad2b9f7	-0.2168274423215306
167	0xbfc145ef6578af95	-0.13494675116214397
168	0xbfc71b02b41fece3	-0.18051179690505767
169	0x3f906fa380015109	0.016050867736638916
170	0x3fae7295130f62ec	0.05946794374148631
171	0x3fdaa7cf325e9a6d	0.4164922706499173
172	0x3fd3f2f6f71e7301	0.3117043889304086
173	0x3fd04f33f6ce8c67	0.2548341665480564
174	0xbfd04ce54671d4ca	-0.25469333533631
175	0xbfb7cd5392fb1c47	-0.09297678316498646
176	0xbfdfb78d8b35d092	-0.49557818026301803
177	0x3fb9722f4837a1e2	0.09939857018583312
178	0xbfcfb36f0980a6e0	-0.24766338314048308
179	0xbfc12f22d0c45143	-0.1342509765023668
180	0x3fae84372877bcdb	0.059602473916919606
181	0x3fd310d764fd87aa	0.29790291654910084
182	0x3fb54a19b058a61c	0.08316193156556334
183	0x3fc78e0fd0f84e74	0.18402288154230784
184	0xbfdb101070d8071d	-0.4228554822912985
185	0x3f6bb60653ca4c43	0.003382694585817998
186	0x3fced71fb1d05b1f	0.24094005758589618
187	0xbfab51e6a6ec22f0	-0.05335922992350628
188	0xbfbf6c3ca33ae859	-0.1227453135024076
189	0xbfbc0dbc5e55978b	-0.10958459189495622
190	0xbf81443b38af3c97	-0.008430922191023078
191	0x3fe0d923f087c5a0	0.526506395135744
192	0xbfbc51f678e1018a	-0.11062565280099626
193	0xbfc8931de96691e0	-0.19198964973942534
194	0xbfc6c6a6c1e95c48	-0.1779373595079241
195	0xbfa3f3e97ff8c5f4	-0.03897027671008493
196	0x3fc1999096c665c0	0.1374989258008963
197	0xbfc018cdee540270	-0.12575697075955672
198	0xbfb3af30de45a1ba	-0.07689195086061931
199	0x3fcdaa59024d911a	0.2317610989804358
200	0x3fb2f6e4cedfe81a	0.07407980013513829
201	0x3fd12a40c399f9cd	0.2682039175196252
202	0xbfb9cdc03927f6ae	-0.10079575915730274
203	0xbf4a5a5c5321933b	-0.0008042288593626887
204	0xbfb0c21176db0327	-0.06546124603029267
205	0x3fb0ccfc4b399652	0.06562783085390692
206	0xbfca85f02984bc85	-0.20721246745367608
207	0xbf6a7eb9872f798a	-0.0032342551798897933
208	0xbfc3c1528eb3e709	-0.15433723419101167
209	0x3fc52b00290dce39	0.16537477497659994
210	0x3fc2fdb4f699da58	0.14836751977027762
211	0x3fd12173f7c2589b	0.26766680903654966
212	0xbfc67942b77eb39c	-0.1755755802127198
213	0x3fa067f6cc052031	0.032043182759082696
214	0xbfb10c92e3e3fc82	-0.0665981108067957
215	0x3fa3d94a04bcd518	0.03876715953667026
216	0x3fcffc221c4cbbc9	0.24988199598143826
217	0xbf944bfba36a4c89	-0.019821101998399846
218	0x3fbd099095865f87	0.11342719698438773
219	0x3fb1126e944bdfca	0.06668749924199271
220	0xbfd1ae97ba510dc3	-0.27628129191381506
221	0x3fca885a08d30cc2	0.20728612357024728
222	0xbfc3b4bf5451f531	-0.15395347230143266
223	0x3fc0378d85860e98	0.12669533748350115
224	0xbf9c79adf5ee4169	-0.027807920585077115
225	0x3fa26fdc516011c5	0.03600967877722242
226	0x3f84c0f1e3a30ebd	0.010133638152530872
227	0xbfb2387c054bb18d	-0.07117438439644826
228	0xbfb2d6010d0bc40d	-0.0735779435015191
229	0x3f8db364119bb187	0.014502317225798545
230	0x3fabcde8c2fafc0c	0.05430533771640719
231	0xbfb2690d818b1fe3	-0.07191547787363066
232	0xbfc5d26be55ce143	-0.17048405360561433
233	0x3fc8e226e1d706c1	0.19440160777417329
234	0x3fbacc27d0e13c52	0.10467766618352073
235	0xbfa9e09e2a359c22	-0.05054182305575973
236	0xbfb14907afb3a2b8	-0.06752059974281621
237	0x3fbbfccadb623d5a	0.10932605606125403
238	0x3fa96c644200cbf8	0.04965508752538733
239	0x3fa3c701dcd317d6	0.03862768002140597
240	0x3f756d3eeaa7d30c	0.005231138008174662
241	0x3fc0d1dd3a427997	0.13140454621038763
242	0x3fb401bac7d187f0	0.07815139177685615
243	0xbfc7715769644be4	-0.18314640661318926
244	0x3fc788d21378afac	0.18386293364289708
245	0x3fc20516b30ea6ee	0.1407802938750175
246	0x3f8df39c91420634	0.01462480848590806
247	0x3f9050a6d4339385	0.015932661725759373
248	0x3fa17fcc7835fc65	0.03417815177362441
249	0xbfa9c28eeb64a1e3	-0.050312486872204486
250	0x3fad69a68b181c0b	0.05744667480399109
251	0x3fcf0cc7eb753646	0.24257754322973052
252	0x3fc025d9e6b87edc	0.12615512624414904
253	0xbfbe0e9c9eff0574	-0.11741045839064218
254	0x3fb5e1fb6151aa5a	0.08547946096374784
255	0x3fbe7bf5a8d4ff11	0.11907897350192466
