FashionNetwork/best_weights_w2.npy (npy, 12208 bytes, 1 tensors)

array f8 [151, 10]
0	0xbfe08917ffea8c47	-0.5167350767482127
1	0xbfc32acc090eec70	-0.1497435611944158
2	0xbfe749e885ca16da	-0.7277720082354009
3	0x3fb71929b1e371b8	0.09022770493488153
4	0x3fc35fef5806fac0	0.15136520193296654
5	0x3f8c90cf6c7ca60d	0.013948078630693162
6	0x3ffcce068ad0ce74	1.8002992079244935
7	0xbfd17814a2a5096c	-0.2729541385962395
8	0xbfda0a2511959173	-0.4068691894265363
9	0x3fba1c030cd92339	0.10198992789913754
10	0xbfca49c2b5348fec	-0.20537599418560093
11	0xbfccfb1b229435e4	-0.22641314686227
12	0x3fde16d75af13a1e	0.47014411812861734
13	0xbfb5b5daa9b2d50f	-0.0848061241438993
14	0xbfe14bd96fe20a27	-0.5405089554990966
15	0x3fbfb7d0d9fd0e5c	0.12389855691895363
16	0x3fdef324818c5c9a	0.48359024668884276
17	0xbfb50beaa7f79a8c	-0.08221308327447668
18	0xbf628c71dbc799e8	-0.0022642349051580253
19	0xbfd44ba29c3a13a5	-0.31711640602616803
20	0xbfc2c2d12016db3f	-0.1465703398405029
21	0x3fcd89bcce888d92	0.2307659157241742
22	0x3fb13894680c3818	0.06726958790042692
23	0x3fee9dc12008a006	0.9567571283014338
24	0xbfadb79bedba9ba4	-0.058041451234479596
25	0x3fc708e55a6fb861	0.1799589816650409
26	0xbfc73b303bf41af6	-0.18149378707331437
27	0xbfcf0029b04a400b	-0.24219246967231842
28	0xbfcd3cd39dace495	-0.22841878127090767
29	0xbfd9917e33c329d9	-0.39950518660466866
30	0xbfa22545b56b3c75	-0.03544061507783961
31	0xbfafe3bc990821b3	-0.06228436821044472
32	0xbfbe2af8d3a1f8ff	-0.11784320036710837
33	0xbfb1a8b85397f24a	-0.06898071328027658
34	0xbf8989b590def804	-0.01246969078408356
35	0x3ff53f5dc6bfb26a	1.3279702914834624
36	0x3fca9f9eaed697db	0.20799621140503075
37	0xbfdd138c23527412	-0.45431807946607805
38	0xbf855823647debcd	-0.01042201662470701
39	0xbfdcbf1727a6ae71	-0.4491632353990332
40	0xbfe43fc23abd7875	-0.6327830455081896
41	0x3fde75608b291d4a	0.475914131068255
42	0xbfc1a30cfd3df776	-0.13778841367087197
43	0x3fdc84bc9708692a	0.44560160397817816
44	0x3fbce515e9e525d9	0.1128705688508015
45	0x3fe49778bf125aba	0.6434901935452537
46	0xbfd55f8530d4ebd7	-0.3339550949928571
47	0x3f9756cddb05e2f1	0.02279206895170466
48	0x3fda05904f449038	0.40658958188055605
49	0xbfd177e1f644a119	-0.2729420571290731
50	0xbfe51f2da4db2148	-0.6600559444278042
51	0x3ff32e908dba515a	1.1988683258287751
52	0xbfd93b8ce1c29af4	-0.3942596630753734
53	0x3fdaeda37f08f41f	0.42075431257018353
54	0xbfea3343ab91e28f	-0.8187578536008732
55	0xbfc2aeb8670239b5	-0.14595704107018795
56	0x3fd7e8c786d4d387	0.3735827271187237
57	0x3fd48848ca1e140e	0.32081813562427974
58	0xbfd253de81866ee0	-0.28636896752298746
59	0xbfc99bc5fbfd64ad	-0.20006632618131928
60	0x3fafd74b976a6b7e	0.06218944762550559
61	0x3fac44ac4c94a853	0.055211433742741754
62	0x3fd58aafde216970	0.336589781689006
63	0x3fa801379366ff06	0.046884285682152124
64	0x3fe3e57401c4a6e5	0.6217594179663278
65	0xbfe057f2b99cd9a6	-0.5107358575103731
66	0x3fcb3b1e3194a166	0.21274163647582184
67	0x3fb6622efc7053df	0.08743566191726825
68	0x3fc05a4e222c709f	0.12775589626915448
69	0xbfe3f73a0cdab02b	-0.6239290476855833
70	0xbfcaaa2d8c6b9fee	-0.20831841808762824
71	0x3fd9f0ed420d51c2	0.40533000421899257
72	0xbfcdeb59bc57934e	-0.23374482818976577
73	0xbfb9665e46030ee2	-0.0992182656219103
74	0xbfb8a32ef839a9e3	-0.09623998222529155
75	0x3fd476e7bf523a28	0.3197574013110249
76	0xbfe296b7dde2147b	-0.5808982213644777
77	0xbfc75fb558530fd9	-0.1826082879325657
78	0x3fe99598b7721836	0.7995112975047565
79	0xbfd1928159659a09	-0.2745669720665381
80	0xbfe5bb5a5ff7b3f4	-0.6791202425353036
81	0x3fe09148305bdc52	0.5177346176632318
82	0x3fd067177f21f32f	0.25629222312254546
83	0xbfd1ab036248654d	-0.27606281850747366
84	0x3fd7a4f014cf5a79	0.3694420054647832
85	0x3fd1617262d87d35	0.2715726819314626
86	0x3f9093b9fe81f140	0.016188532027159086
87	0xbfd4f13fd810919a	-0.3272246942526863
88	0xbfb0f870008fe2c5	-0.06629085553857823
89	0xbfdae207c987d8c0	-0.42004580193259855
90	0xbfe31b74fc7a4fa5	-0.5971016818243596
91	0xbfc2b84bae7a9e66	-0.1462492563198225
92	0xbfe4a210616eadf5	-0.6447832015014102
93	0x3fb9ccdf71e94854	0.10078236132656687
94	0x3fba033a052c0c35	0.10161173464079883
95	0xbf901b820f94f9c7	-0.01572993488411514
96	0x3fd492460e0b6924	0.32142783519306506
97	0x3fd37eaedf471d73	0.3046071224639128
98	0x3fb62f805c6f39f1	0.08666231400204773
99	0xbfb0997daeae1c9b	-0.06484208597804512
100	0x3fa6c38c765acbca	0.04446066803702527
101	0x3fdabb208bdb0c6f	0.4176713338640132
102	0xbfd517e1e9dda853	-0.3295826705785931
103	0xbfd4e80a043e24be	-0.32666254438715814
104	0x3f646bcf5d7b5ba4	0.0024928140736437277
105	0x3fc9bb1a76ab6029	0.20102244181066567
106	0x3fe6ce6fa355cf2f	0.7126997175350648
107	0xbfc47a54e667ec26	-0.1599832654027022
108	0x3fc1665d15690eb1	0.13593638940266353
109	0xbfc2da5526088122	-0.1472879825314602
110	0xbfb73deec2e39afb	-0.09078876741441981
111	0x3fa9abe36179cf47	0.0501395279397046
112	0xbf9dff2a0054baff	-0.02929368617076999
113	0xbfe22ac700d93a46	-0.5677218453000215
114	0x3fcab1d53229d095	0.2085520262659243
115	0x3fcf3ab67c2ac8cc	0.24397927344177217
116	0x3f93f3ee03b69307	0.01948520562804659
117	0xbfb93af0f05aa47b	-0.09855562084216445
118	0xbfe7faee0327d1b4	-0.7493810712463103
119	0x3fc8fdcb790b9f8c	0.1952452031175621
120	0x3fc784803c4fee25	0.18373110718663202
121	0xbfbe4cead06b8302	-0.11836116398218269
122	0x3fe1d07b93a8c5dc	0.5566995510072803
123	0xbfd74068de133827	-0.3633062523557577
124	0x3fcd39550bfc71ff	0.2283121403242063
125	0x3fc77360810b3e01	0.18320852566692739
126	0xbfd5238231d63e58	-0.3302922712982528
127	0x3fd0a9524f6dfab8	0.26033456570432234
128	0x3fc5b30959f99ac7	0.16952626126586365
129	0xbfc3e8aaf403723e	-0.15553795733184644
130	0x3fdcd7f0f8a47f44	0.45068001061916996
131	0x3fb193f98ebed872	0.06866416678426093
132	0x3fc956d73bc3a45c	0.19796266954589015
133	0x3fbef87297b2af8c	0.12097850993694531
134	0xbfe60aa58f67934e	-0.6887996483679701
135	0x3fad5901b9f232da	0.057319692562577365
136	0xbfc7c3c09e976164	-0.18566138976781155
137	0x3fd95cda499982ca	0.39629227817026147
138	0x3f7606e6d9cb5b8b	0.005377675781992229
139	0xbfd8efdaeaa1960f	-0.38963959611132365
140	0x3fcd483e25007c57	0.22876717383130327
141	0xbf81037a1eff5a5d	-0.008307413168876449
142	0xbfea7ce99be9cbc1	-0.8277481122189486
143	0xbfbff2383cb091ec	-0.12478972894366053
144	0x3fe1f0330a62e8b1	0.5605712130411772
145	0x3fd63bb1f0f39b31	0.34739349871090314
146	0x3fdb5618a9872bbf	0.42712990336866236
147	0xbfe4630231d8600d	-0.6370860074557655
148	0x3fdd449d6109a24b	0.4573129127152568
149	0x3fc2fd357ff4dfce	0.14835232494237832
150	0x3fd07a6c9df12892	0.2574721853640166
151	0x3fe652f0c7982cbe	0.6976245783165707
152	0xbf908dd53adcdf57	-0.016166049688052322
153	0xbfd71a9811fd81b7	-0.3609981704412592
154	0xbfcaa9512fc5ad71	-0.2082921489012324
155	0xbfb36c45f3da5dba	-0.07587086871568874
156	0xbfc60413f403ea98	-0.17199944891747942
157	0xbf995547e60e0e47	-0.02473938314098081
158	0x3fc5219e1e11178a	0.16508842914680272
159	0xbfe136c1562b3715	-0.5379339869484477
160	0x3fd8ff4d711475dd	0.39058242838822627
161	0xbfd142c17e5c94de	-0.2696994527817206
162	0x3fe9965a8736a4e1	0.7996037140739213
163	0xbfdd04d94099dc79	-0.4534209376210537
164	0xbfdb9dad8b067fba	-0.4314988954229154
165	0x3fc724446fef61bd	0.18079429116802528
166	0xbfb26e88e2c585e0	-0.071999125827936
167	0x3fd490aba57f7a84	0.32132998620901554
168	0xbfcff05d9dd52dfc	-0.2495228787105218
169	0xbfa899ce7d359af2	-0.04804845121798519
170	0xbfd2ef24a6a0ad87	-0.2958461405966876
171	0xbfd83c1466238653	-0.37866697287072276
172	0xbfd80fb5b5bf56d5	-0.3759588503720413
173	0x3fac420ccbd88d05	0.05519142139771741
174	0xbfbe3ebc8dbcf903	-0.1181447835960832
175	0xbfba340c2b7c0c09	-0.10235668241152508
176	0x3fb0786656da4c47	0.06433715458324328
177	0x3fc11712489978cd	0.13351658387086332
178	0x3fc310d48d59dc84	0.1489511194410832
179	0x3fc19985dfbafa81	0.1374976484712143
180	0xbfdbfacf0c86618d	-0.43718315337312036
181	0xbfda96f4a4f70791	-0.4154636012063913
182	0x3fd060e7a5375e2f	0.25591460356142454
183	0xbfd68ad48eb821f1	-0.35222352921894556
184	0x3fbe3cbaf455e2d7	0.11811417069646822
185	0x3fcf06f383209f25	0.24239963438707793
186	0x3fd682e1741de9e4	0.3517383226350417
187	0xbf9033719924006f	-0.015821242305719737
188	0xbfd349e548494e8a	-0.3013852315827782
189	0xbfae7711506e8d40	-0.059502163952198206
190	0xbfb05a13862f8442	-0.06387445474639811
191	0xbfd56015bb5882a8	-0.33398955626948146
192	0x3fd20ce1a110f520	0.28203621605992346
193	0x3fc222880c888367	0.14167881595588058
194	0x3fd451343b9772cd	0.3174563009213614
195	0xbfb0120662a0124b	-0.06277503879398087
196	0xbfc9f6cb5a6fff71	-0.2028440658177675
197	0xbfe295f6e37080b9	-0.5808062021424326
198	0xbfcf843534f01d75	-0.2462221630559999
199	0xbfa97f6df36787ec	-0.049800334894612636
200	0x3fe3cdddac880f41	0.6188801164393923
201	0x3fd95d062c8d849f	0.39630274153575756
202	0x3fc4cab62ac19e53	0.16243626678191223
203	0xbfd1ac5934d47ca3	-0.2761443153303366
204	0xbfd0b410bd023f4b	-0.26099031885040763
205	0x3fd95862852171bf	0.3960195827583241
206	0xbfb443366131ad83	-0.07915058014775948
207	0xbfd357d52b735908	-0.3022358822176021
208	0xbfa075b747d835e5	-0.03214810134896221
209	0x3fb3503427861899	0.0754425617688831
210	0xbfc0503993976f6e	-0.12744826990717278
211	0x3fbdcd1f88514826	0.11641118124069347
212	0x3fc61dc7421f6e29	0.17278376320506197
213	0xbfd413b11dc43025	-0.31370189577933366
214	0x3fd9b498ca427281	0.4016477561179173
215	0x3fa82937abbc984a	0.04718946429629563
216	0xbfe465146bc3bcef	-0.6373388390328766
217	0xbfd0a18d591d993a	-0.2598603601712913
218	0xbfc799a86b144073	-0.184376766476365
219	0x3fd163dab6aec55d	0.27171962585551573
220	0x3f9faa23598fafc4	0.030922462788950403
221	0xbfd2ddaf0809e031	-0.29478050026910113
222	0x3fceb97852b955da	0.2400350955892197
223	0x3fb67e8ef59904c3	0.08786862846411041
224	0x3fc25b90f9db75b5	0.1434193820959259
225	0x3f95b5bdfcfa53ae	0.021201103749792054
226	0xbfe8807207258c78	-0.765679372747754
227	0x3fc575a564e95149	0.1676527731639317
228	0x3fd16c1d5ea67d88	0.27222379916380435
229	0x3fd4fbfb13d29349	0.327879685743302
230	0xbfd03cb59d7fc6c6	-0.25370540982030965
231	0xbfb323174bf9e6ed	-0.0747541962136002
232	0x3f925102e517684b	0.017887158615714587
233	0x3fca178de9361030	0.20384382140412205
234	0x3fcf55288f0daec6	0.24478632912665982
235	0x3fd871aa6b2e2701	0.38193760363411405
236	0xbfc0564dc8473e4c	-0.12763378409589377
237	0xbfc44996a6267357	-0.15849574196627245
238	0x3fc2f16866449f07	0.14799218171651082
239	0xbfc6b003add449f2	-0.17724653232342252
240	0xbfb657f003177deb	-0.08727932048304125
241	0xbfbe515c48c40aa8	-0.118428962483487
242	0xbfa930a0a836d664	-0.04919912389179329
243	0x3fe0b522d9e94d49	0.522111344917371
244	0xbfc05cf81490184e	-0.1278371906666415
245	0x3fe91eb9fabb9a76	0.785000791275549
246	0xbfbfe59761bdb8b4	-0.12459703575379671
247	0x3fcd7d2ff2e2bb17	0.23038291320468637
248	0x3fa42d4914b3c213	0.03940800073349151
249	0xbfe79c23dcdbab16	-0.7378100694307672
250	0xbfc807e4e353b723	-0.18774090862228218
251	0x3fd7dded1405f752	0.3729202933826531
252	0xbfe1f62cd67c8e49	-0.5613006772222856
253	0xbfb77c1dce37f916	-0.09173761639246822
254	0x3fdfe2e8a16f5f52	0.4982244087709563
255	0x3fd7580a888754da	0.3647486050879941
